…
load_weights_from: "/misc/lmbraid10/dosovits/Caffe/Saved/generate_chairs_big_augparams_largenet_1_0_1/generate_chairs_iter_100"
step_lr: 5e-05
step_lr: 1e-05
step_lr: 2e-06
step_iter: 20000
step_iter: 10000
I1024 14:24:03.592255 21190 solver.cpp:59] Creating training net from file: /home/dosovits/MATLAB/toolboxes/caffe/nets/generate_chairs_big_augparams_largenet_1/train2.prototxt
I1024 14:24:03.594368 21190 net.cpp:36] Initializing net from parameters: 
name: "CaffeNet"
layers {
  top: "data"
  top: "label"
  name: "data"
  type: DATA
  data_param {
    source: "/misc/lmbraid10/dosovits/Caffe/Data/chairs_128x128_reduced/data-lmdb"
    scale: 0.00390625
    batch_size: 128
    backend: LMDB
  }
}
layers {
  bottom: "data"
  top: "data_aug"
  top: "aug_params"
  name: "data_aug"
  type: DATA_AUGMENTATION
  augmentation_param {
    crop_size: 128
    max_multiplier: 1
    recompute_mean: 0
    translate {
      rand_type: "uniform_bernoulli"
      mean: 0
      spread: 0.1
      prob: 1
    }
    rotate {
      rand_type: "uniform_bernoulli"
      mean: 0
      spread: 0.2
      prob: 1
    }
    zoom {
      rand_type: "uniform_bernoulli"
      exp: true
      mean: 0
      spread: 0.3
      prob: 1
    }
    squeeze {
      rand_type: "uniform_bernoulli"
      exp: true
      mean: 0
      spread: 0.1
      prob: 1
    }
    lmult_mult {
      rand_type: "uniform_bernoulli"
      exp: true
      mean: 0
      spread: 0.7
      prob: 1
    }
    sat_mult {
      rand_type: "uniform_bernoulli"
      exp: true
      mean: 0
      spread: 0.7
      prob: 1
    }
    col_rotate {
      rand_type: "uniform_bernoulli"
      mean: 0
      spread: 1.5
      prob: 1
    }
  }
  coeff_schedule_param {
    gamma: 1e-05
    initial_coeff: 0.2
    final_coeff: 1
  }
}
layers {
  top: "segm"
  top: "label1"
  name: "segm"
  type: DATA
  data_param {
    source: "/misc/lmbraid10/dosovits/Caffe/Data/chairs_segm_128x128_reduced/data-lmdb"
    scale: 0.00390625
    batch_size: 128
    backend: LMDB
  }
}
layers {
  bottom: "segm"
  bottom: "aug_params"
  top: "segm_aug"
  name: "segm_aug"
  type: DATA_AUGMENTATION
  augmentation_param {
    crop_size: 128
    max_multiplier: 1
    recompute_mean: 0
    lmult_mult {
      rand_type: "uniform_bernoulli"
      exp: true
      mean: 0
      spread: 0.7
      prob: 0
    }
    sat_mult {
      rand_type: "uniform_bernoulli"
      exp: true
      mean: 0
      spread: 0.7
      prob: 0
    }
    col_rotate {
      rand_type: "uniform_bernoulli"
      mean: 0
      spread: 1.5
      prob: 0
    }
  }
}
layers {
  top: "angles"
  top: "labels"
  name: "angles"
  type: HDF5_DATA
  hdf5_data_param {
    source: "/misc/lmbraid10/dosovits/Caffe/Data/chairs/angles_reduced_shuffle.txt"
    batch_size: 128
  }
}
layers {
  bottom: "label"
  top: "onehot"
  name: "label_to_onehot"
  type: LABEL_TO_ONEHOT
  inner_product_param {
    num_output: 843
  }
}
layers {
  bottom: "onehot"
  top: "fc1_label"
  name: "fc1_label"
  type: INNER_PRODUCT_ORTH
  blobs_lr: 1
  blobs_lr: 2
  weight_decay: 0
  weight_decay: 0
  inner_product_param {
    num_output: 512
    weight_filler {
      type: "gaussian"
      std: 0.001
    }
    bias_filler {
      type: "constant"
      value: 0.1
    }
  }
  orth_param {
    orth_method: NONE
    step: 10
    max_num_iter: 30
    eps: 0.001
    esmaeili_coeff: 0.55
    col_norm: 1
    orth_before_iter: 2
  }
}
layers {
  bottom: "fc1_label"
  top: "fc1_label"
  name: "relu1_label"
  type: RELU
}
layers {
  bottom: "fc1_label"
  top: "fc2_label"
  name: "fc2_label"
  type: INNER_PRODUCT_ORTH
  blobs_lr: 1
  blobs_lr: 2
  weight_decay: 0
  weight_decay: 0
  inner_product_param {
    num_output: 512
    weight_filler {
      type: "gaussian"
      std: 0.001
    }
    bias_filler {
      type: "constant"
      value: 0.1
    }
  }
  orth_param {
    orth_method: NONE
    step: 10
    max_num_iter: 30
    eps: 0.001
    esmaeili_coeff: 0.55
    col_norm: 1
    orth_before_iter: 2
  }
}
layers {
  bottom: "fc2_label"
  top: "fc2_label"
  name: "relu2_label"
  type: RELU
}
layers {
  bottom: "angles"
  top: "fc1_angles"
  name: "fc1_angles"
  type: INNER_PRODUCT_ORTH
  blobs_lr: 1
  blobs_lr: 2
  weight_decay: 0
  weight_decay: 0
  inner_product_param {
    num_output: 512
    weight_filler {
      type: "gaussian"
      std: 0.001
    }
    bias_filler {
      type: "constant"
      value: 0.1
    }
  }
  orth_param {
    orth_method: NONE
    step: 10
    max_num_iter: 30
    eps: 0.001
    esmaeili_coeff: 0.55
    col_norm: 1
    orth_before_iter: 2
  }
}
layers {
  bottom: "fc1_angles"
  top: "fc1_angles"
  name: "relu1_angles"
  type: RELU
}
layers {
  bottom: "fc1_angles"
  top: "fc2_angles"
  name: "fc2_angles"
  type: INNER_PRODUCT_ORTH
  blobs_lr: 1
  blobs_lr: 2
  weight_decay: 0
  weight_decay: 0
  inner_product_param {
    num_output: 512
    weight_filler {
      type: "gaussian"
      std: 0.001
    }
    bias_filler {
      type: "constant"
      value: 0.1
    }
  }
  orth_param {
    orth_method: NONE
    step: 10
    max_num_iter: 30
    eps: 0.001
    esmaeili_coeff: 0.55
    col_norm: 1
    orth_before_iter: 2
  }
}
layers {
  bottom: "fc2_angles"
  top: "fc2_angles"
  name: "relu2_angles"
  type: RELU
}
layers {
  bottom: "aug_params"
  top: "fc1_aug_params"
  name: "fc1_aug_params"
  type: INNER_PRODUCT_ORTH
  blobs_lr: 1
  blobs_lr: 2
  weight_decay: 0
  weight_decay: 0
  inner_product_param {
    num_output: 512
    weight_filler {
      type: "gaussian"
      std: 0.001
    }
    bias_filler {
      type: "constant"
      value: 0.1
    }
  }
  orth_param {
    orth_method: NONE
    step: 10
    max_num_iter: 30
    eps: 0.001
    esmaeili_coeff: 0.55
    col_norm: 1
    orth_before_iter: 2
  }
}
layers {
  bottom: "fc1_aug_params"
  top: "fc1_aug_params"
  name: "relu1_aug_params"
  type: RELU
}
layers {
  bottom: "fc1_aug_params"
  top: "fc2_aug_params"
  name: "fc2_aug_params"
  type: INNER_PRODUCT_ORTH
  blobs_lr: 1
  blobs_lr: 2
  weight_decay: 0
  weight_decay: 0
  inner_product_param {
    num_output: 512
    weight_filler {
      type: "gaussian"
      std: 0.001
    }
    bias_filler {
      type: "constant"
      value: 0.1
    }
  }
  orth_param {
    orth_method: NONE
    step: 10
    max_num_iter: 30
    eps: 0.001
    esmaeili_coeff: 0.55
    col_norm: 1
    orth_before_iter: 2
  }
}
layers {
  bottom: "fc2_aug_params"
  top: "fc2_aug_params"
  name: "relu2_aug_params"
  type: RELU
}
layers {
  bottom: "fc2_label"
  bottom: "fc2_angles"
  bottom: "fc2_aug_params"
  top: "fc2"
  name: "concat"
  type: CONCAT
  concat_param {
    concat_dim: 1
  }
}
layers {
  bottom: "fc2"
  top: "fc3"
  name: "fc3"
  type: INNER_PRODUCT_ORTH
  blobs_lr: 1
  blobs_lr: 2
  weight_decay: 0
  weight_decay: 0
  inner_product_param {
    num_output: 1024
    weight_filler {
      type: "gaussian"
      std: 0.0001
    }
    bias_filler {
      type: "constant"
      value: 0.1
    }
  }
  orth_param {
    orth_method: NONE
    step: 10
    max_num_iter: 30
    eps: 0.001
    esmaeili_coeff: 0.55
    col_norm: 1
    orth_before_iter: 2
  }
}
layers {
  bottom: "fc3"
  top: "fc3"
  name: "relu3"
  type: RELU
}
layers {
  bottom: "fc3"
  top: "fc4"
  name: "fc4"
  type: INNER_PRODUCT_ORTH
  blobs_lr: 1
  blobs_lr: 2
  weight_decay: 0
  weight_decay: 0
  inner_product_param {
    num_output: 1024
    weight_filler {
      type: "gaussian"
      std: 0.0001
    }
    bias_filler {
      type: "constant"
      value: 0.1
    }
  }
  orth_param {
    orth_method: NONE
    step: 10
    max_num_iter: 30
    eps: 0.001
    esmaeili_coeff: 0.55
    col_norm: 1
    orth_before_iter: 2
  }
}
layers {
  bottom: "fc4"
  top: "fc4"
  name: "relu4"
  type: RELU
}
layers {
  bottom: "fc4"
  top: "fc5"
  name: "fc5"
  type: INNER_PRODUCT_ORTH
  blobs_lr: 1
  blobs_lr: 2
  weight_decay: 0
  weight_decay: 0
  inner_product_param {
    num_output: 16384
    weight_filler {
      type: "gaussian"
      std: 0.0005
    }
    bias_filler {
      type: "constant"
      value: 0.1
    }
  }
  orth_param {
    orth_method: NONE
    step: 10
    max_num_iter: 30
    eps: 0.001
    esmaeili_coeff: 0.55
    col_norm: 1
    orth_before_iter: 2
  }
}
layers {
  bottom: "fc5"
  top: "fc5"
  name: "relu5"
  type: RELU
}
layers {
  bottom: "fc5"
  top: "fc5_reshape"
  name: "reshape"
  type: RESHAPE
  reshape_param {
    channels: 256
    height: 8
    width: 8
  }
}
layers {
  bottom: "fc5_reshape"
  top: "deconv6"
  name: "deconv6"
  type: DECONVOLUTION_ORTH
  blobs_lr: 1
  blobs_lr: 2
  weight_decay: 0
  weight_decay: 0
  deconvolution_param {
    pad: 2
    kernel_size: 5
    stride: 2
    weight_filler {
      type: "gaussian"
      std: 0.0001
    }
    bias_filler {
      type: "constant"
      value: 0.01
    }
    output_height: 16
    output_width: 16
    output_channels: 256
  }
  orth_param {
    orth_method: NONE
    step: 10
    max_num_iter: 30
    eps: 0.0001
    esmaeili_coeff: 0.55
    col_norm: 0.01
    orth_before_iter: 2
  }
}
layers {
  bottom: "deconv6"
  top: "deconv6"
  name: "relu6"
  type: RELU
}
layers {
  bottom: "deconv6"
  top: "deconv7"
  name: "deconv7"
  type: DECONVOLUTION_ORTH
  blobs_lr: 1
  blobs_lr: 2
  weight_decay: 0
  weight_decay: 0
  deconvolution_param {
    pad: 2
    kernel_size: 5
    stride: 2
    weight_filler {
      type: "gaussian"
      std: 0.0001
    }
    bias_filler {
      type: "constant"
      value: 0.01
    }
    output_height: 32
    output_width: 32
    output_channels: 92
  }
  orth_param {
    orth_method: NONE
    step: 10
    max_num_iter: 30
    eps: 0.0001
    esmaeili_coeff: 0.55
    col_norm: 0.01
    orth_before_iter: 2
  }
}
layers {
  bottom: "deconv7"
  top: "deconv7"
  name: "relu7"
  type: RELU
}
layers {
  bottom: "deconv7"
  top: "deconv8"
  name: "deconv8_new"
  type: DECONVOLUTION_ORTH
  blobs_lr: 1
  blobs_lr: 2
  weight_decay: 0
  weight_decay: 0
  deconvolution_param {
    pad: 2
    kernel_size: 5
    stride: 2
    weight_filler {
      type: "gaussian"
      mean: 0.001
      std: 0.0001
    }
    bias_filler {
      type: "constant"
      value: 0.001
    }
    output_height: 64
    output_width: 64
    output_channels: 92
  }
  orth_param {
    orth_method: NONE
    step: 10
    max_num_iter: 30
    eps: 0.0001
    esmaeili_coeff: 0.55
    col_norm: 0.01
    orth_before_iter: 2
  }
}
layers {
  bottom: "deconv8"
  top: "deconv8"
  name: "relu8"
  type: RELU
}
layers {
  bottom: "deconv8"
  top: "deconv9"
  name: "deconv9_new"
  type: DECONVOLUTION_ORTH
  blobs_lr: 1
  blobs_lr: 2
  weight_decay: 0
  weight_decay: 0
  deconvolution_param {
    pad: 2
    kernel_size: 5
    stride: 2
    weight_filler {
      type: "gaussian"
      mean: 0.001
      std: 0.0001
    }
    bias_filler {
      type: "constant"
      value: 0
    }
    output_height: 128
    output_width: 128
    output_channels: 3
  }
  orth_param {
    orth_method: NONE
    step: 10
    max_num_iter: 30
    eps: 0.0001
    esmaeili_coeff: 0.55
    col_norm: 0.01
    orth_before_iter: 2
  }
}
layers {
  bottom: "fc4"
  top: "fc5_segm"
  name: "fc5_segm"
  type: INNER_PRODUCT_ORTH
  blobs_lr: 1
  blobs_lr: 2
  weight_decay: 0
  weight_decay: 0
  inner_product_param {
    num_output: 8192
    weight_filler {
      type: "gaussian"
      std: 0.0005
    }
    bias_filler {
      type: "constant"
      value: 0.1
    }
  }
  orth_param {
    orth_method: NONE
    step: 10
    max_num_iter: 30
    eps: 0.001
    esmaeili_coeff: 0.55
    col_norm: 1
    orth_before_iter: 2
  }
}
layers {
  bottom: "fc5_segm"
  top: "fc5_segm"
  name: "relu5_segm"
  type: RELU
}
layers {
  bottom: "fc5_segm"
  top: "fc5_segm_reshape"
  name: "reshape"
  type: RESHAPE
  reshape_param {
    channels: 128
    height: 8
    width: 8
  }
}
layers {
  bottom: "fc5_segm_reshape"
  top: "deconv6_segm"
  name: "deconv6_segm"
  type: DECONVOLUTION_ORTH
  blobs_lr: 1
  blobs_lr: 2
  weight_decay: 0
  weight_decay: 0
  deconvolution_param {
    pad: 2
    kernel_size: 5
    stride: 2
    weight_filler {
      type: "gaussian"
      std: 0.0001
    }
    bias_filler {
      type: "constant"
      value: 0.01
    }
    output_height: 16
    output_width: 16
    output_channels: 92
  }
  orth_param {
    orth_method: NONE
    step: 10
    max_num_iter: 30
    eps: 0.0001
    esmaeili_coeff: 0.55
    col_norm: 0.01
    orth_before_iter: 2
  }
}
layers {
  bottom: "deconv6_segm"
  top: "deconv6_segm"
  name: "relu6_segm"
  type: RELU
}
layers {
  bottom: "deconv6_segm"
  top: "deconv7_segm"
  name: "deconv7_segm"
  type: DECONVOLUTION_ORTH
  blobs_lr: 1
  blobs_lr: 2
  weight_decay: 0
  weight_decay: 0
  deconvolution_param {
    pad: 2
    kernel_size: 5
    stride: 2
    weight_filler {
      type: "gaussian"
      std: 0.0001
    }
    bias_filler {
      type: "constant"
      value: 0.01
    }
    output_height: 32
    output_width: 32
    output_channels: 32
  }
  orth_param {
    orth_method: NONE
    step: 10
    max_num_iter: 30
    eps: 0.0001
    esmaeili_coeff: 0.55
    col_norm: 0.01
    orth_before_iter: 2
  }
}
layers {
  bottom: "deconv7_segm"
  top: "deconv7_segm"
  name: "relu7_segm"
  type: RELU
}
layers {
  bottom: "deconv7_segm"
  top: "deconv8_segm"
  name: "deconv8_segm_new"
  type: DECONVOLUTION_ORTH
  blobs_lr: 1
  blobs_lr: 2
  weight_decay: 0
  weight_decay: 0
  deconvolution_param {
    pad: 2
    kernel_size: 5
    stride: 2
    weight_filler {
      type: "gaussian"
      mean: 0.001
      std: 0.0001
    }
    bias_filler {
      type: "constant"
      value: 0.001
    }
    output_height: 64
    output_width: 64
    output_channels: 32
  }
  orth_param {
    orth_method: NONE
    step: 10
    max_num_iter: 30
    eps: 0.0001
    esmaeili_coeff: 0.55
    col_norm: 0.01
    orth_before_iter: 2
  }
}
layers {
  bottom: "deconv8_segm"
  top: "deconv8_segm"
  name: "relu8_segm"
  type: RELU
}
layers {
  bottom: "deconv8_segm"
  top: "deconv9_segm"
  name: "deconv9_segm_new"
  type: DECONVOLUTION_ORTH
  blobs_lr: 1
  blobs_lr: 2
  weight_decay: 0
  weight_decay: 0
  deconvolution_param {
    pad: 2
    kernel_size: 5
    stride: 2
    weight_filler {
      type: "gaussian"
      mean: 0.001
      std: 0.0001
    }
    bias_filler {
      type: "constant"
      value: 0
    }
    output_height: 128
    output_width: 128
    output_channels: 3
  }
  orth_param {
    orth_method: NONE
    step: 10
    max_num_iter: 30
    eps: 0.0001
    esmaeili_coeff: 0.55
    col_norm: 0.01
    orth_before_iter: 2
  }
}
layers {
  bottom: "data"
  bottom: "segm"
  top: "segm_data"
  name: "eltwise"
  type: ELTWISE
  eltwise_param {
    operation: PROD
  }
}
layers {
  bottom: "deconv9"
  bottom: "segm_data"
  name: "recon_data"
  type: EUCLIDEAN_LOSS
  loss_param {
    coeff: 10
  }
}
layers {
  bottom: "deconv9_segm"
  bottom: "segm"
  name: "recon_segm"
  type: EUCLIDEAN_LOSS
  loss_param {
    coeff: 1
  }
}
layers {
  bottom: "deconv9_segm"
  top: "out_segm"
  name: "out_segm"
  type: DATA_AUGMENTATION
  augmentation_param {
    crop_size: 128
    max_multiplier: 1
    recompute_mean: 0
  }
}
layers {
  bottom: "deconv9"
  top: "out"
  name: "out"
  type: DATA_AUGMENTATION
  augmentation_param {
    crop_size: 128
    max_multiplier: 1
    recompute_mean: 0
  }
}
I1024 14:24:03.594617 21190 net.cpp:65] Creating Layer data
I1024 14:24:03.594630 21190 net.cpp:185] data -> data
I1024 14:24:03.594648 21190 net.cpp:185] data -> label
I1024 14:24:03.599344 21190 data_layer.cpp:223] Opening lmdb /misc/lmbraid10/dosovits/Caffe/Data/chairs_128x128_reduced/data-lmdb
I1024 14:24:03.599413 21190 data_layer.cpp:285] output data size: 128,3,128,128
I1024 14:24:03.609676 21190 net.cpp:82] Top shape: 128 3 128 128 (6291456)
I1024 14:24:03.609691 21190 net.cpp:82] Top shape: 128 1 1 1 (128)
I1024 14:24:03.609697 21190 net.cpp:112] data does not need backward computation.
I1024 14:24:03.609704 21190 net.cpp:65] Creating Layer data_data_0_split
I1024 14:24:03.609714 21190 net.cpp:224] data_data_0_split <- data
I1024 14:24:03.609724 21190 net.cpp:175] data_data_0_split -> data (in-place)
I1024 14:24:03.609733 21190 net.cpp:185] data_data_0_split -> data_data_0_split_1
I1024 14:24:03.609745 21190 net.cpp:82] Top shape: 128 3 128 128 (6291456)
I1024 14:24:03.609750 21190 net.cpp:82] Top shape: 128 3 128 128 (6291456)
I1024 14:24:03.609753 21190 net.cpp:112] data_data_0_split does not need backward computation.
I1024 14:24:03.609762 21190 net.cpp:65] Creating Layer data_aug
I1024 14:24:03.609766 21190 net.cpp:224] data_aug <- data
I1024 14:24:03.609773 21190 net.cpp:185] data_aug -> data_aug
I1024 14:24:03.609782 21190 net.cpp:185] data_aug -> aug_params
I1024 14:24:03.609793 21190 data_augmentation_layer.cpp:184] Writing 28 augmentation params
I1024 14:24:03.609799 21190 net.cpp:82] Top shape: 128 3 128 128 (6291456)
I1024 14:24:03.609803 21190 net.cpp:82] Top shape: 128 28 1 1 (3584)
I1024 14:24:03.609808 21190 net.cpp:112] data_aug does not need backward computation.
I1024 14:24:03.609813 21190 net.cpp:65] Creating Layer aug_params_data_aug_1_split
I1024 14:24:03.609818 21190 net.cpp:224] aug_params_data_aug_1_split <- aug_params
I1024 14:24:03.609830 21190 net.cpp:175] aug_params_data_aug_1_split -> aug_params (in-place)
I1024 14:24:03.609838 21190 net.cpp:185] aug_params_data_aug_1_split -> aug_params_data_aug_1_split_1
I1024 14:24:03.609845 21190 net.cpp:82] Top shape: 128 28 1 1 (3584)
I1024 14:24:03.609850 21190 net.cpp:82] Top shape: 128 28 1 1 (3584)
I1024 14:24:03.609854 21190 net.cpp:112] aug_params_data_aug_1_split does not need backward computation.
I1024 14:24:03.609860 21190 net.cpp:65] Creating Layer segm
I1024 14:24:03.609865 21190 net.cpp:185] segm -> segm
I1024 14:24:03.609872 21190 net.cpp:185] segm -> label1
I1024 14:24:03.612709 21190 data_layer.cpp:223] Opening lmdb /misc/lmbraid10/dosovits/Caffe/Data/chairs_segm_128x128_reduced/data-lmdb
I1024 14:24:03.612773 21190 data_layer.cpp:285] output data size: 128,3,128,128
I1024 14:24:03.623703 21190 net.cpp:82] Top shape: 128 3 128 128 (6291456)
I1024 14:24:03.623726 21190 net.cpp:82] Top shape: 128 1 1 1 (128)
I1024 14:24:03.623733 21190 net.cpp:112] segm does not need backward computation.
I1024 14:24:03.623742 21190 net.cpp:65] Creating Layer segm_segm_0_split
I1024 14:24:03.623749 21190 net.cpp:224] segm_segm_0_split <- segm
I1024 14:24:03.623756 21190 net.cpp:175] segm_segm_0_split -> segm (in-place)
I1024 14:24:03.623765 21190 net.cpp:185] segm_segm_0_split -> segm_segm_0_split_1
I1024 14:24:03.623775 21190 net.cpp:185] segm_segm_0_split -> segm_segm_0_split_2
I1024 14:24:03.623783 21190 net.cpp:82] Top shape: 128 3 128 128 (6291456)
I1024 14:24:03.623788 21190 net.cpp:82] Top shape: 128 3 128 128 (6291456)
I1024 14:24:03.623792 21190 net.cpp:82] Top shape: 128 3 128 128 (6291456)
I1024 14:24:03.623797 21190 net.cpp:112] segm_segm_0_split does not need backward computation.
I1024 14:24:03.623805 21190 net.cpp:65] Creating Layer segm_aug
I1024 14:24:03.623811 21190 net.cpp:224] segm_aug <- segm
I1024 14:24:03.623816 21190 net.cpp:224] segm_aug <- aug_params
I1024 14:24:03.623822 21190 net.cpp:185] segm_aug -> segm_aug
I1024 14:24:03.623833 21190 data_augmentation_layer.cpp:190] Reading 28 augmentation params
I1024 14:24:03.623838 21190 net.cpp:82] Top shape: 128 3 128 128 (6291456)
I1024 14:24:03.623843 21190 net.cpp:112] segm_aug does not need backward computation.
I1024 14:24:03.623849 21190 net.cpp:65] Creating Layer angles
I1024 14:24:03.623854 21190 net.cpp:185] angles -> angles
I1024 14:24:03.623862 21190 net.cpp:185] angles -> labels
I1024 14:24:03.623872 21190 hdf5_data_layer.cpp:70] Loading filename from /misc/lmbraid10/dosovits/Caffe/Data/chairs/angles_reduced_shuffle.txt
I1024 14:24:03.624272 21190 hdf5_data_layer.cpp:82] Number of files: 1
I1024 14:24:03.624285 21190 hdf5_data_layer.cpp:38] Loading HDF5 file/misc/lmbraid10/dosovits/Caffe/Data/chairs/angles_reduced_shuffle.h5
I1024 14:24:03.632040 21190 hdf5_data_layer.cpp:57] Successully loaded 52266 rows
I1024 14:24:03.632073 21190 hdf5_data_layer.cpp:114] output data size: 128,4,1,1
I1024 14:24:03.632082 21190 net.cpp:82] Top shape: 128 4 1 1 (512)
I1024 14:24:03.632087 21190 net.cpp:82] Top shape: 128 1 1 1 (128)
I1024 14:24:03.632092 21190 net.cpp:112] angles does not need backward computation.
I1024 14:24:03.632105 21190 net.cpp:65] Creating Layer label_to_onehot
I1024 14:24:03.632112 21190 net.cpp:224] label_to_onehot <- label
I1024 14:24:03.632120 21190 net.cpp:185] label_to_onehot -> onehot
I1024 14:24:03.632136 21190 net.cpp:82] Top shape: 128 843 1 1 (107904)
I1024 14:24:03.632141 21190 net.cpp:112] label_to_onehot does not need backward computation.
I1024 14:24:03.632149 21190 net.cpp:65] Creating Layer fc1_label
I1024 14:24:03.632154 21190 net.cpp:224] fc1_label <- onehot
I1024 14:24:03.632160 21190 net.cpp:185] fc1_label -> fc1_label
I1024 14:24:03.655154 21190 net.cpp:82] Top shape: 128 512 1 1 (65536)
I1024 14:24:03.655179 21190 net.cpp:107] fc1_label needs backward computation.
I1024 14:24:03.655189 21190 net.cpp:65] Creating Layer relu1_label
I1024 14:24:03.655195 21190 net.cpp:224] relu1_label <- fc1_label
I1024 14:24:03.655203 21190 net.cpp:175] relu1_label -> fc1_label (in-place)
I1024 14:24:03.655215 21190 net.cpp:82] Top shape: 128 512 1 1 (65536)
I1024 14:24:03.655220 21190 net.cpp:107] relu1_label needs backward computation.
I1024 14:24:03.655228 21190 net.cpp:65] Creating Layer fc2_label
I1024 14:24:03.655232 21190 net.cpp:224] fc2_label <- fc1_label
I1024 14:24:03.655239 21190 net.cpp:185] fc2_label -> fc2_label
I1024 14:24:03.668653 21190 net.cpp:82] Top shape: 128 512 1 1 (65536)
I1024 14:24:03.668664 21190 net.cpp:107] fc2_label needs backward computation.
I1024 14:24:03.668670 21190 net.cpp:65] Creating Layer relu2_label
I1024 14:24:03.668675 21190 net.cpp:224] relu2_label <- fc2_label
I1024 14:24:03.668681 21190 net.cpp:175] relu2_label -> fc2_label (in-place)
I1024 14:24:03.668687 21190 net.cpp:82] Top shape: 128 512 1 1 (65536)
I1024 14:24:03.668692 21190 net.cpp:107] relu2_label needs backward computation.
I1024 14:24:03.668699 21190 net.cpp:65] Creating Layer fc1_angles
I1024 14:24:03.668704 21190 net.cpp:224] fc1_angles <- angles
I1024 14:24:03.668709 21190 net.cpp:185] fc1_angles -> fc1_angles
I1024 14:24:03.669378 21190 net.cpp:82] Top shape: 128 512 1 1 (65536)
I1024 14:24:03.669389 21190 net.cpp:107] fc1_angles needs backward computation.
I1024 14:24:03.669394 21190 net.cpp:65] Creating Layer relu1_angles
I1024 14:24:03.669399 21190 net.cpp:224] relu1_angles <- fc1_angles
I1024 14:24:03.669405 21190 net.cpp:175] relu1_angles -> fc1_angles (in-place)
I1024 14:24:03.669411 21190 net.cpp:82] Top shape: 128 512 1 1 (65536)
I1024 14:24:03.669416 21190 net.cpp:107] relu1_angles needs backward computation.
I1024 14:24:03.669422 21190 net.cpp:65] Creating Layer fc2_angles
I1024 14:24:03.669426 21190 net.cpp:224] fc2_angles <- fc1_angles
I1024 14:24:03.669432 21190 net.cpp:185] fc2_angles -> fc2_angles
I1024 14:24:03.682821 21190 net.cpp:82] Top shape: 128 512 1 1 (65536)
I1024 14:24:03.682834 21190 net.cpp:107] fc2_angles needs backward computation.
I1024 14:24:03.682842 21190 net.cpp:65] Creating Layer relu2_angles
I1024 14:24:03.682847 21190 net.cpp:224] relu2_angles <- fc2_angles
I1024 14:24:03.682853 21190 net.cpp:175] relu2_angles -> fc2_angles (in-place)
I1024 14:24:03.682860 21190 net.cpp:82] Top shape: 128 512 1 1 (65536)
I1024 14:24:03.682864 21190 net.cpp:107] relu2_angles needs backward computation.
I1024 14:24:03.682870 21190 net.cpp:65] Creating Layer fc1_aug_params
I1024 14:24:03.682875 21190 net.cpp:224] fc1_aug_params <- aug_params_data_aug_1_split_1
I1024 14:24:03.682881 21190 net.cpp:185] fc1_aug_params -> fc1_aug_params
I1024 14:24:03.684231 21190 net.cpp:82] Top shape: 128 512 1 1 (65536)
I1024 14:24:03.684243 21190 net.cpp:107] fc1_aug_params needs backward computation.
I1024 14:24:03.684249 21190 net.cpp:65] Creating Layer relu1_aug_params
I1024 14:24:03.684255 21190 net.cpp:224] relu1_aug_params <- fc1_aug_params
I1024 14:24:03.684262 21190 net.cpp:175] relu1_aug_params -> fc1_aug_params (in-place)
I1024 14:24:03.684275 21190 net.cpp:82] Top shape: 128 512 1 1 (65536)
I1024 14:24:03.684280 21190 net.cpp:107] relu1_aug_params needs backward computation.
I1024 14:24:03.684288 21190 net.cpp:65] Creating Layer fc2_aug_params
I1024 14:24:03.684291 21190 net.cpp:224] fc2_aug_params <- fc1_aug_params
I1024 14:24:03.684298 21190 net.cpp:185] fc2_aug_params -> fc2_aug_params
I1024 14:24:03.697654 21190 net.cpp:82] Top shape: 128 512 1 1 (65536)
I1024 14:24:03.697667 21190 net.cpp:107] fc2_aug_params needs backward computation.
I1024 14:24:03.697674 21190 net.cpp:65] Creating Layer relu2_aug_params
I1024 14:24:03.697679 21190 net.cpp:224] relu2_aug_params <- fc2_aug_params
I1024 14:24:03.697685 21190 net.cpp:175] relu2_aug_params -> fc2_aug_params (in-place)
I1024 14:24:03.697691 21190 net.cpp:82] Top shape: 128 512 1 1 (65536)
I1024 14:24:03.697695 21190 net.cpp:107] relu2_aug_params needs backward computation.
I1024 14:24:03.697701 21190 net.cpp:65] Creating Layer concat
I1024 14:24:03.697705 21190 net.cpp:224] concat <- fc2_label
I1024 14:24:03.697710 21190 net.cpp:224] concat <- fc2_angles
I1024 14:24:03.697715 21190 net.cpp:224] concat <- fc2_aug_params
I1024 14:24:03.697721 21190 net.cpp:185] concat -> fc2
I1024 14:24:03.697731 21190 net.cpp:82] Top shape: 128 1536 1 1 (196608)
I1024 14:24:03.697736 21190 net.cpp:107] concat needs backward computation.
I1024 14:24:03.697742 21190 net.cpp:65] Creating Layer fc3
I1024 14:24:03.697747 21190 net.cpp:224] fc3 <- fc2
I1024 14:24:03.697753 21190 net.cpp:185] fc3 -> fc3
I1024 14:24:03.777689 21190 net.cpp:82] Top shape: 128 1024 1 1 (131072)
I1024 14:24:03.777714 21190 net.cpp:107] fc3 needs backward computation.
I1024 14:24:03.777722 21190 net.cpp:65] Creating Layer relu3
I1024 14:24:03.777729 21190 net.cpp:224] relu3 <- fc3
I1024 14:24:03.777735 21190 net.cpp:175] relu3 -> fc3 (in-place)
I1024 14:24:03.777745 21190 net.cpp:82] Top shape: 128 1024 1 1 (131072)
I1024 14:24:03.777748 21190 net.cpp:107] relu3 needs backward computation.
I1024 14:24:03.777755 21190 net.cpp:65] Creating Layer fc4
I1024 14:24:03.777760 21190 net.cpp:224] fc4 <- fc3
I1024 14:24:03.777765 21190 net.cpp:185] fc4 -> fc4
I1024 14:24:03.831112 21190 net.cpp:82] Top shape: 128 1024 1 1 (131072)
I1024 14:24:03.831133 21190 net.cpp:107] fc4 needs backward computation.
I1024 14:24:03.831140 21190 net.cpp:65] Creating Layer relu4
I1024 14:24:03.831146 21190 net.cpp:224] relu4 <- fc4
I1024 14:24:03.831151 21190 net.cpp:175] relu4 -> fc4 (in-place)
I1024 14:24:03.831159 21190 net.cpp:82] Top shape: 128 1024 1 1 (131072)
I1024 14:24:03.831163 21190 net.cpp:107] relu4 needs backward computation.
I1024 14:24:03.831172 21190 net.cpp:65] Creating Layer fc4_relu4_0_split
I1024 14:24:03.831177 21190 net.cpp:224] fc4_relu4_0_split <- fc4
I1024 14:24:03.831182 21190 net.cpp:175] fc4_relu4_0_split -> fc4 (in-place)
I1024 14:24:03.831189 21190 net.cpp:185] fc4_relu4_0_split -> fc4_relu4_0_split_1
I1024 14:24:03.831197 21190 net.cpp:82] Top shape: 128 1024 1 1 (131072)
I1024 14:24:03.831202 21190 net.cpp:82] Top shape: 128 1024 1 1 (131072)
I1024 14:24:03.831207 21190 net.cpp:107] fc4_relu4_0_split needs backward computation.
I1024 14:24:03.831213 21190 net.cpp:65] Creating Layer fc5
I1024 14:24:03.831218 21190 net.cpp:224] fc5 <- fc4
I1024 14:24:03.831223 21190 net.cpp:185] fc5 -> fc5
I1024 14:24:05.276835 21190 net.cpp:82] Top shape: 128 16384 1 1 (2097152)
I1024 14:24:05.276875 21190 net.cpp:107] fc5 needs backward computation.
I1024 14:24:05.276890 21190 net.cpp:65] Creating Layer relu5
I1024 14:24:05.276897 21190 net.cpp:224] relu5 <- fc5
I1024 14:24:05.276906 21190 net.cpp:175] relu5 -> fc5 (in-place)
I1024 14:24:05.276917 21190 net.cpp:82] Top shape: 128 16384 1 1 (2097152)
I1024 14:24:05.276922 21190 net.cpp:107] relu5 needs backward computation.
I1024 14:24:05.276929 21190 net.cpp:65] Creating Layer reshape
I1024 14:24:05.276934 21190 net.cpp:224] reshape <- fc5
I1024 14:24:05.276940 21190 net.cpp:185] reshape -> fc5_reshape
I1024 14:24:05.276950 21190 net.cpp:82] Top shape: 128 256 8 8 (2097152)
I1024 14:24:05.276963 21190 net.cpp:107] reshape needs backward computation.
I1024 14:24:05.276973 21190 net.cpp:65] Creating Layer deconv6
I1024 14:24:05.276978 21190 net.cpp:224] deconv6 <- fc5_reshape
I1024 14:24:05.276985 21190 net.cpp:185] deconv6 -> deconv6
I1024 14:24:05.356701 21190 deconv_orth_layer.cpp:86] Convolutional orth layer: M_=256, K_=6400
I1024 14:24:05.356820 21190 net.cpp:82] Top shape: 128 256 16 16 (8388608)
I1024 14:24:05.356832 21190 net.cpp:107] deconv6 needs backward computation.
I1024 14:24:05.356887 21190 net.cpp:65] Creating Layer relu6
I1024 14:24:05.356897 21190 net.cpp:224] relu6 <- deconv6
I1024 14:24:05.356910 21190 net.cpp:175] relu6 -> deconv6 (in-place)
I1024 14:24:05.356923 21190 net.cpp:82] Top shape: 128 256 16 16 (8388608)
I1024 14:24:05.356930 21190 net.cpp:107] relu6 needs backward computation.
I1024 14:24:05.356940 21190 net.cpp:65] Creating Layer deconv7
I1024 14:24:05.356947 21190 net.cpp:224] deconv7 <- deconv6
I1024 14:24:05.356955 21190 net.cpp:185] deconv7 -> deconv7
I1024 14:24:05.385571 21190 deconv_orth_layer.cpp:86] Convolutional orth layer: M_=256, K_=2300
I1024 14:24:05.385761 21190 net.cpp:82] Top shape: 128 92 32 32 (12058624)
I1024 14:24:05.385772 21190 net.cpp:107] deconv7 needs backward computation.
I1024 14:24:05.385779 21190 net.cpp:65] Creating Layer relu7
I1024 14:24:05.385792 21190 net.cpp:224] relu7 <- deconv7
I1024 14:24:05.385798 21190 net.cpp:175] relu7 -> deconv7 (in-place)
I1024 14:24:05.385807 21190 net.cpp:82] Top shape: 128 92 32 32 (12058624)
I1024 14:24:05.385812 21190 net.cpp:107] relu7 needs backward computation.
I1024 14:24:05.385819 21190 net.cpp:65] Creating Layer deconv8_new
I1024 14:24:05.385879 21190 net.cpp:224] deconv8_new <- deconv7
I1024 14:24:05.385887 21190 net.cpp:185] deconv8_new -> deconv8
I1024 14:24:05.396098 21190 deconv_orth_layer.cpp:86] Convolutional orth layer: M_=92, K_=2300
I1024 14:24:05.396133 21190 net.cpp:82] Top shape: 128 92 64 64 (48234496)
I1024 14:24:05.396142 21190 net.cpp:107] deconv8_new needs backward computation.
I1024 14:24:05.396148 21190 net.cpp:65] Creating Layer relu8
I1024 14:24:05.396154 21190 net.cpp:224] relu8 <- deconv8
I1024 14:24:05.396160 21190 net.cpp:175] relu8 -> deconv8 (in-place)
I1024 14:24:05.396167 21190 net.cpp:82] Top shape: 128 92 64 64 (48234496)
I1024 14:24:05.396173 21190 net.cpp:107] relu8 needs backward computation.
I1024 14:24:05.396180 21190 net.cpp:65] Creating Layer deconv9_new
I1024 14:24:05.396185 21190 net.cpp:224] deconv9_new <- deconv8
I1024 14:24:05.396193 21190 net.cpp:185] deconv9_new -> deconv9
I1024 14:24:05.396546 21190 deconv_orth_layer.cpp:86] Convolutional orth layer: M_=92, K_=75
I1024 14:24:05.396590 21190 net.cpp:82] Top shape: 128 3 128 128 (6291456)
I1024 14:24:05.396601 21190 net.cpp:107] deconv9_new needs backward computation.
I1024 14:24:05.396608 21190 net.cpp:65] Creating Layer deconv9_deconv9_new_0_split
I1024 14:24:05.396613 21190 net.cpp:224] deconv9_deconv9_new_0_split <- deconv9
I1024 14:24:05.396621 21190 net.cpp:175] deconv9_deconv9_new_0_split -> deconv9 (in-place)
I1024 14:24:05.396630 21190 net.cpp:185] deconv9_deconv9_new_0_split -> deconv9_deconv9_new_0_split_1
I1024 14:24:05.396637 21190 net.cpp:82] Top shape: 128 3 128 128 (6291456)
I1024 14:24:05.396644 21190 net.cpp:82] Top shape: 128 3 128 128 (6291456)
I1024 14:24:05.396649 21190 net.cpp:107] deconv9_deconv9_new_0_split needs backward computation.
I1024 14:24:05.396657 21190 net.cpp:65] Creating Layer fc5_segm
I1024 14:24:05.396664 21190 net.cpp:224] fc5_segm <- fc4_relu4_0_split_1
I1024 14:24:05.396672 21190 net.cpp:185] fc5_segm -> fc5_segm
I1024 14:24:05.957273 21190 net.cpp:82] Top shape: 128 8192 1 1 (1048576)
I1024 14:24:05.957309 21190 net.cpp:107] fc5_segm needs backward computation.
I1024 14:24:05.957347 21190 net.cpp:65] Creating Layer relu5_segm
I1024 14:24:05.957355 21190 net.cpp:224] relu5_segm <- fc5_segm
I1024 14:24:05.957365 21190 net.cpp:175] relu5_segm -> fc5_segm (in-place)
I1024 14:24:05.957376 21190 net.cpp:82] Top shape: 128 8192 1 1 (1048576)
I1024 14:24:05.957386 21190 net.cpp:107] relu5_segm needs backward computation.
I1024 14:24:05.957393 21190 net.cpp:65] Creating Layer reshape
I1024 14:24:05.957397 21190 net.cpp:224] reshape <- fc5_segm
I1024 14:24:05.957404 21190 net.cpp:185] reshape -> fc5_segm_reshape
I1024 14:24:05.957418 21190 net.cpp:82] Top shape: 128 128 8 8 (1048576)
I1024 14:24:05.957424 21190 net.cpp:107] reshape needs backward computation.
I1024 14:24:05.957433 21190 net.cpp:65] Creating Layer deconv6_segm
I1024 14:24:05.957438 21190 net.cpp:224] deconv6_segm <- fc5_segm_reshape
I1024 14:24:05.957448 21190 net.cpp:185] deconv6_segm -> deconv6_segm
I1024 14:24:05.971782 21190 deconv_orth_layer.cpp:86] Convolutional orth layer: M_=128, K_=2300
I1024 14:24:05.971869 21190 net.cpp:82] Top shape: 128 92 16 16 (3014656)
I1024 14:24:05.971879 21190 net.cpp:107] deconv6_segm needs backward computation.
I1024 14:24:05.971885 21190 net.cpp:65] Creating Layer relu6_segm
I1024 14:24:05.971891 21190 net.cpp:224] relu6_segm <- deconv6_segm
I1024 14:24:05.971899 21190 net.cpp:175] relu6_segm -> deconv6_segm (in-place)
I1024 14:24:05.971907 21190 net.cpp:82] Top shape: 128 92 16 16 (3014656)
I1024 14:24:05.971914 21190 net.cpp:107] relu6_segm needs backward computation.
I1024 14:24:05.971921 21190 net.cpp:65] Creating Layer deconv7_segm
I1024 14:24:05.971926 21190 net.cpp:224] deconv7_segm <- deconv6_segm
I1024 14:24:05.971933 21190 net.cpp:185] deconv7_segm -> deconv7_segm
I1024 14:24:05.975486 21190 deconv_orth_layer.cpp:86] Convolutional orth layer: M_=92, K_=800
I1024 14:24:05.975554 21190 net.cpp:82] Top shape: 128 32 32 32 (4194304)
I1024 14:24:05.975560 21190 net.cpp:107] deconv7_segm needs backward computation.
I1024 14:24:05.975567 21190 net.cpp:65] Creating Layer relu7_segm
I1024 14:24:05.975574 21190 net.cpp:224] relu7_segm <- deconv7_segm
I1024 14:24:05.975581 21190 net.cpp:175] relu7_segm -> deconv7_segm (in-place)
I1024 14:24:05.975589 21190 net.cpp:82] Top shape: 128 32 32 32 (4194304)
I1024 14:24:05.975594 21190 net.cpp:107] relu7_segm needs backward computation.
I1024 14:24:05.975601 21190 net.cpp:65] Creating Layer deconv8_segm_new
I1024 14:24:05.975611 21190 net.cpp:224] deconv8_segm_new <- deconv7_segm
I1024 14:24:05.975620 21190 net.cpp:185] deconv8_segm_new -> deconv8_segm
I1024 14:24:05.976861 21190 deconv_orth_layer.cpp:86] Convolutional orth layer: M_=32, K_=800
I1024 14:24:05.976907 21190 net.cpp:82] Top shape: 128 32 64 64 (16777216)
I1024 14:24:05.976913 21190 net.cpp:107] deconv8_segm_new needs backward computation.
I1024 14:24:05.976919 21190 net.cpp:65] Creating Layer relu8_segm
I1024 14:24:05.976925 21190 net.cpp:224] relu8_segm <- deconv8_segm
I1024 14:24:05.976933 21190 net.cpp:175] relu8_segm -> deconv8_segm (in-place)
I1024 14:24:05.976940 21190 net.cpp:82] Top shape: 128 32 64 64 (16777216)
I1024 14:24:05.976946 21190 net.cpp:107] relu8_segm needs backward computation.
I1024 14:24:05.976953 21190 net.cpp:65] Creating Layer deconv9_segm_new
I1024 14:24:05.976958 21190 net.cpp:224] deconv9_segm_new <- deconv8_segm
I1024 14:24:05.976969 21190 net.cpp:185] deconv9_segm_new -> deconv9_segm
I1024 14:24:05.977112 21190 deconv_orth_layer.cpp:86] Convolutional orth layer: M_=32, K_=75
I1024 14:24:05.977180 21190 net.cpp:82] Top shape: 128 3 128 128 (6291456)
I1024 14:24:05.977190 21190 net.cpp:107] deconv9_segm_new needs backward computation.
I1024 14:24:05.977205 21190 net.cpp:65] Creating Layer deconv9_segm_deconv9_segm_new_0_split
I1024 14:24:05.977210 21190 net.cpp:224] deconv9_segm_deconv9_segm_new_0_split <- deconv9_segm
I1024 14:24:05.977217 21190 net.cpp:175] deconv9_segm_deconv9_segm_new_0_split -> deconv9_segm (in-place)
I1024 14:24:05.977224 21190 net.cpp:185] deconv9_segm_deconv9_segm_new_0_split -> deconv9_segm_deconv9_segm_new_0_split_1
I1024 14:24:05.977233 21190 net.cpp:82] Top shape: 128 3 128 128 (6291456)
I1024 14:24:05.977241 21190 net.cpp:82] Top shape: 128 3 128 128 (6291456)
I1024 14:24:05.977246 21190 net.cpp:107] deconv9_segm_deconv9_segm_new_0_split needs backward computation.
I1024 14:24:05.977257 21190 net.cpp:65] Creating Layer eltwise
I1024 14:24:05.977262 21190 net.cpp:224] eltwise <- data_data_0_split_1
I1024 14:24:05.977270 21190 net.cpp:224] eltwise <- segm_segm_0_split_1
I1024 14:24:05.977279 21190 net.cpp:185] eltwise -> segm_data
I1024 14:24:05.977293 21190 net.cpp:82] Top shape: 128 3 128 128 (6291456)
I1024 14:24:05.977298 21190 net.cpp:112] eltwise does not need backward computation.
I1024 14:24:05.977304 21190 net.cpp:65] Creating Layer recon_data
I1024 14:24:05.977313 21190 net.cpp:224] recon_data <- deconv9
I1024 14:24:05.977319 21190 net.cpp:224] recon_data <- segm_data
I1024 14:24:05.977326 21190 net.cpp:107] recon_data needs backward computation.
I1024 14:24:05.977334 21190 net.cpp:65] Creating Layer recon_segm
I1024 14:24:05.977339 21190 net.cpp:224] recon_segm <- deconv9_segm
I1024 14:24:05.977345 21190 net.cpp:224] recon_segm <- segm_segm_0_split_2
I1024 14:24:05.977354 21190 net.cpp:107] recon_segm needs backward computation.
I1024 14:24:05.977361 21190 net.cpp:65] Creating Layer out_segm
I1024 14:24:05.977367 21190 net.cpp:224] out_segm <- deconv9_segm_deconv9_segm_new_0_split_1
I1024 14:24:05.977375 21190 net.cpp:185] out_segm -> out_segm
I1024 14:24:05.977386 21190 net.cpp:82] Top shape: 128 3 128 128 (6291456)
I1024 14:24:05.977392 21190 net.cpp:107] out_segm needs backward computation.
I1024 14:24:05.977398 21190 net.cpp:65] Creating Layer out
I1024 14:24:05.977403 21190 net.cpp:224] out <- deconv9_deconv9_new_0_split_1
I1024 14:24:05.977411 21190 net.cpp:185] out -> out
I1024 14:24:05.977421 21190 net.cpp:82] Top shape: 128 3 128 128 (6291456)
I1024 14:24:05.977426 21190 net.cpp:107] out needs backward computation.
I1024 14:24:05.977430 21190 net.cpp:119] This network produces output data_aug
I1024 14:24:05.977435 21190 net.cpp:119] This network produces output label1
I1024 14:24:05.977440 21190 net.cpp:119] This network produces output labels
I1024 14:24:05.977445 21190 net.cpp:119] This network produces output out
…
